DeepOPF+/2.sufficient_DNN_size/PreDCOPF_case30_0.93_dnn.pth (torch_old, 6824 bytes, 8 tensors)

layer1.weight f4 [32, 20]
00000000: 303e fa3d cbd8 bbbd 9f0d 15bd bb39 e53d
00000010: c880 50be 4b61 103e 02eb 1fbd dd41 f73d
00000020: 27d4 1b3d 6545 a7bc 474c 8d3d 1d63 933c
00000030: e988 b53d b12e a4bd 8813 19bc 0eca 57bc
00000040: 0442 213d 7fcb c63b e138 4f3e 08ca 9c3d
00000050: e1fa aabd 4f5e 0abe 1263 1abd 07f8 c5bd
00000060: a82f 93bd 06fa 2b3c 886b 083e 1879 f83d
00000070: 12e9 5fbe 32de 0d3e 7cff 7e3d db1d 593e
00000080: 0d0f 173e 1eb4 50be 81c9 59be fb51 ddbd
00000090: a2fc 483e aa6d 19bd 758b c33d 3b40 d5bd
000000a0: 8c24 663e d2dc b6bd c62e 313e 79a0 023c
000000b0: 7e5c e6bd bc48 f63d a931 e8bd c393 913d
000000c0: 30a8 72bd 5633 9dbc 59a9 56be 6672 cfbd
000000d0: 58b7 013e 74d1 48bd 018a 693e 4b03 3d3e
000000e0: f094 a8bb 925d 13be 1ee8 103e 5505 993d
000000f0: 58c3 09be 97fa 1e3e 7f42 153e 2a53 553e
00000100: fd39 ecbd c0af dbbc 8e6c b93b b4b1 2e3d
00000110: 9e85 23be 063c 18be 24d0 063e 86d8 2dbd
00000120: a62c f43d 3045 ba3c 4bd8 aa3d 8a51 723d
00000130: 65fd ba3d 5c7d f73d f5cd 49be 3bfd fa3d
00000140: b20c 1fbe d5d0 2abe 596a 7d3c bd69 14bd
00000150: b16d 083e e2a8 02be 3d9b 49be 2a96 283e
00000160: 2726 00bd 08bc 023e ef04 973d 37c1 29be
00000170: c0a9 3f3d eda7 633d 405d 17be 827c d5bd
00000180: 0cf2 9f3d e0b7 2b3d 5e00 bfbd c1d4 86bd
00000190: b9c3 4a3e e0f7 44bd 137f f43d 259a b83d
000001a0: 49f5 1abe 77ac 49be 2fd7 543e 9694 a23b
000001b0: d500 163e 594b 223d 2798 853d cb15 243e
000001c0: f42a 523e fce3 1ebe c504 ae3c afec 233e
000001d0: 8eed 1e3e 764c 073e 31a9 2cbe 4bd5 2bbe
000001e0: 4fd8 10be 429e b23c 6bd7 5d3e 5001 17be
000001f0: 530e e73d 1e1a 05be 21a7 5dbe d473 5cbd
00000200: 1be1 fa3d 6234 4e3e ef91 14be 31f8 2c3d
00000210: 2534 3f3e 975c 113e 3d55 083e ec58 1c3e
00000220: fd75 0a3e 50c8 523d fbf1 22be a2a6 46be
00000230: 07b9 c3bd bd9b 9cbc 3645 05be bda8 b53d
00000240: c7d8 9b3d 340c 33bd 3320 be3d 831e a23d
00000250: 72e0 123e bc47 213e 62f7 8cbd e1ca 663e
00000260: 6513 9bbc 6d96 47ba 360b 51be 934a 0cbe
00000270: c96a fdbd 8cc1 b5bd 71df 293e ab87 87bd
00000280: 5ed5 2dbe dbb8 aa3d f025 8d3d f693 113e
00000290: 7a72 f2bd fd9c 3b3d 4430 acbd 93be 58bd
000002a0: f732 39be de2f d6bd fbb8 91bd 825c be3d
000002b0: 935b 1c3d 2f46 573d 40d0 613e 0f70 5c3e
000002c0: d371 193e d03c 923b ba20 21be 0838 303e
000002d0: 2a83 63bd e307 91bc 0ae6 44be 6465 33bd
000002e0: c452 13be 48c4 523e 3097 45be 7a1e 32be
000002f0: ee8e ecbb bbdf f6bd 879a a43d cf87 afbd
00000300: d158 d6bd 7fa2 553c 731d 263e 1fb4 20be
00000310: afcc d73d b376 133e bf57 603e 61e7 1fbe
00000320: 9f81 803d c38b 20be a53f 4c3e 080c a0bd
00000330: 75af 123e 4eb3 793c 58b1 10bc f5e4 bd3a
00000340: dadc 3e3d f177 e93d ef0e 363d 1a4b 9d3d
00000350: 5d34 45be 0e94 2f3e 7a65 503e 9f08 463e
00000360: 7206 323e b978 1cbe 8e2a 98bd 95a7 523e
00000370: f3cc 38be 0854 453e d07c 3ebe 11b1 2bbe
00000380: a70e cb3d 6fea 2ebe f68a 7bbd de2c 1c3e
00000390: 53f7 2a3e d626 4e3e 3290 63bd 8a5f 3cbe
000003a0: 750c 573e d2d1 6cbd 1c3d d1bd 3f8f 353d
000003b0: 2287 2abe 3819 0c3e 961a 053e 5916 40be
000003c0: 9db2 41be 6c9f cdbc ac0f b53d f16f 44bc
000003d0: a480 f3bd a06d d2b9 3ed8 5cbe 6d74 27be
000003e0: e60c 1ebe f9f0 363e 5c37 443e 3ed6 a6bd
000003f0: 73f4 933b 3ff2 c03d 4350 ae3c 0a9b f0bd
0.122188926 -0.09172209 -0.036389943 0.11192652 -0.20361626 0.14099614 -0.03904248 0.12073109
0.03804412 -0.020418832 0.068993144 0.017991597 0.08864004 -0.08016718 -0.0093430355 -0.013170732
0.039369598 0.006066739 0.20236541 0.07655722 -0.083486326 -0.13512538 -0.037692137 -0.09666448
-0.07186824 0.010496622 0.1332227 0.12132472 -0.21866253 0.13854292 0.062255368 0.21202795
0.14751835 -0.20381209 -0.21268274 -0.10806652 0.19627622 -0.0374581 0.09548084 -0.104126416
0.22474879 -0.08928837 0.17302999 0.00797283 -0.1124811 0.12025592 -0.11337597 0.071082614
-0.059242427 -0.019189518 -0.20963039 -0.10129242 0.12667596 -0.049027875 0.2280655 0.18458287
-0.005144708 -0.14391163 0.14151046 0.0747172 -0.13453424 0.1552528 0.14576147 0.20832506
-0.11534498 -0.026817203 0.0056586927 0.04264994 -0.1596894 -0.14866647 0.13165337 -0.04244282
0.119225785 0.02273807 0.08342036 0.059159793 0.091303624 0.12084457 -0.19707473 0.12255331
-0.15532187 -0.16681226 0.01546725 -0.036233652 0.13323094 -0.12759736 -0.19688125 0.16463533
-0.031286385 0.1276704 0.07373988 -0.16577612 0.046792746 0.05558007 -0.14781666 -0.104241386
0.07809839 0.041923404 -0.09326242 -0.06583548 0.19801225 -0.048087955 0.119383 0.09013776
-0.15132631 -0.19694696 0.20785211 0.0049615605 0.14648755 0.03962264 0.065231614 0.16023938
0.20524198 -0.15516657 0.021242509 0.16008256 0.15520307 0.13212761 -0.16861416 -0.16780584
-0.14145015 0.021803979 0.21664207 -0.14746594 0.11282029 -0.12998244 -0.21645786 -0.0538214
0.12249967 0.2013717 -0.14508794 0.04222888 0.18672235 0.14195476 0.13313766 0.15268296
0.13521571 0.051460564 -0.1591262 -0.19399503 -0.095567755 -0.01911723 -0.13014683 0.08870075
0.07609706 -0.04371281 0.09283485 0.07915976 0.14343432 0.1575002 -0.06883122 0.2253833
-0.018930146 -0.0007613663 -0.20414433 -0.13700323 -0.12373883 -0.08874807 0.16589142 -0.066176735
-0.16975924 0.0833604 0.06892002 0.14216599 -0.11838241 0.045804013 -0.084076434 -0.05291612
-0.18085848 -0.10458349 -0.0711536 0.09294988 0.03817327 0.052557167 0.22052097 0.21527122
0.14984827 0.004462816 -0.1573514 0.17208874 -0.05554501 -0.017703956 -0.19228378 -0.043797866
-0.14387041 0.20582688 -0.19295955 -0.17394438 -0.007219187 -0.12054392 0.08037286 -0.08570825
-0.10466159 0.01303923 0.16222171 -0.1569371 0.10537087 0.14400749 0.21908472 -0.15615608
0.06274723 -0.15678315 0.19946153 -0.07814795 0.14324744 0.0152405035 -0.008831345 0.001448779
0.04659734 0.1139983 0.044447836 0.0768034 -0.19258256 0.17146322 0.2035121 0.19339226
0.17385271 -0.15280427 -0.07429992 0.2057174 -0.18046932 0.19270337 -0.186023 -0.16766764
0.09914904 -0.17081617 -0.06141182 0.1525149 0.16695909 0.20132002 -0.055557437 -0.1839582
0.21000846 -0.057817288 -0.10216734 0.044326063 -0.16653112 0.13681495 0.12998423 -0.18758525
-0.18915792 -0.025100432 0.0884088 -0.01198958 -0.118897706 -0.00040135998 -0.21566865 -0.16353007
-0.15434608 0.17865361 0.19161743 -0.08146332 0.0045152246 0.09421205 0.021278506 -0.11748321

layer1.bias f4 [32]
00000000: 43ac 36bc 29c4 92bd 88a3 323e 91c8 493e
00000010: a300 0e3e 6bc8 b73d 6b65 3bbe 00c9 5e3e
00000020: 3744 4cbe 7131 97bd 52a1 18be 1056 933d
00000030: e92a 3abe 84c7 dabd 5a22 10be ab8e 0cbe
00000040: 473f d1bd 1910 653e f7ad 8abc e6de be3d
00000050: 51be 64be 89e0 673e 7f67 53bd fa1d 49be
00000060: 78b4 233e 806b 80bd 4aa8 533e 22b8 1dbe
00000070: 9f85 57be 08e9 23be 0b00 e13d 8632 a2bc
-0.011149469 -0.07166321 0.17445195 0.19705416 0.1386743 0.089737736 -0.18300407 0.21756363
-0.19947897 -0.07382477 -0.14905289 0.071941495 -0.18180431 -0.10682586 -0.14075604 -0.13726299
-0.10217147 0.22369422 -0.016928656 0.09319858 -0.22338225 0.22644247 -0.051612373 -0.19640341
0.15986812 -0.06270504 0.20669666 -0.15402272 -0.21047066 -0.16006863 0.10986336 -0.019799482

layer2.weight f4 [16, 32]
00000000: 26b3 27be 9841 063d b09d 38bc 26cb 823d
00000010: 6d29 b8bd 463a 01be 76c2 f63d 9836 aebd
00000020: aeab fe3d 83c5 123e 7e2f fdbd 16ea a6bd
00000030: 7054 ae3c 4fad 2abe a45e 5e3d 06d9 96bd
00000040: 1785 a0bd a6f0 0bbe 4e5e a93d 45b5 e6bd
00000050: 68b0 10be 286a 3ebd 308c c9bd 93fc 2fbe
00000060: 24e8 913d 4abe 89bd 7a98 fd3d 62d8 fe3d
00000070: cbe5 e6bd 000f d3bd 1682 80bd e210 d43d
00000080: e8d3 7b3b ef0a 82bd ec41 ff3d ea94 3b3e
00000090: 0be0 073e f98d e5bd 4883 05bd 2896 d4bc
000000a0: 3bc0 1d3e 6def bbbd 6a34 aebd b1cf 883b
000000b0: 9385 2abd 8a03 923d 4d59 ab3c c9c4 d8bd
000000c0: 0fe4 023e b54c ec3d 4c44 1e3d 3cd8 08be
000000d0: 3745 a83d 8840 0e3e d433 573d ecb8 83bd
000000e0: ecdf e63c 5a6d 8abd 3bc1 2d3e d20a 2e3e
000000f0: b28e b0bc d97f bfbd c2d2 083e 04d6 c33d
00000100: 8f1f df3d 6135 08be e174 a43d 243f 60bd
00000110: cb55 1dbe 6145 b8bd bfba a83d 58d3 963d
00000120: 7592 18be 29dd cd3d cf5f 253e 67a7 0a3e
00000130: 266c cc3d 5b38 a5bc f696 f23d 63b7 0d3e
00000140: 6fd8 bc3d 9943 fcbd e9ef 7bbd 1877 373e
00000150: 3d01 0a3e 0eeb 113e 813c 8cbd 50e0 e0bc
00000160: b6d1 dfbd 1cde cabd 6d78 0d3e ac93 14be
00000170: 1734 32bd 60b2 9e3d 393a 80bd 5935 4b3d
00000180: 2004 e8bc 41f2 903d a86b 0abe 2424 cd3c
00000190: e9bc 23be 6a79 e13d 37d6 2f3e bed0 7dbd
000001a0: 9023 d63c 5484 b9bd 1f93 e7bd 6a73 b6bd
000001b0: 5f79 acbd 2072 093d 418a a5bc df47 4b3c
000001c0: 346d 0abe 7fd1 e0bd 6779 1cbe 4cd7 01be
000001d0: 5ad7 173e d7c4 873d 51a3 2cbe 00b4 f1bc
000001e0: 0bd8 703c 2aaa c53d e55d 293e 8169 303d
000001f0: 8e22 003e f198 80bd 418b acbb f38c dabd
00000200: 7ed8 7a3d e071 263e 8a62 0e3e 6a14 513e
00000210: 364a a4bd 6741 c73c 8b9d 3f3d c382 1b3e
00000220: 33d6 1dbe 586a b5bd f8e7 783d e25a cfbd
00000230: 472f 863d d2e3 01bb c5c0 3ebd 6192 c13d
00000240: 1702 ff3d ff88 343e 2b2e a23d d3fa 433d
00000250: 213a 123e e72b 393e ec15 a6bd b8b3 b83d
00000260: bc2d 533d f4c1 a6bd cd65 29bd da70 32bd
00000270: bf99 01be c943 7839 e845 f33d 7268 103e
00000280: 2001 5c3c a64c 2fbe 0011 bf3d b6b3 5cbd
00000290: 1ffb 203e 55ea 2ebe f468 29bd 49b5 0b3e
000002a0: 469e 9c3d 1ecb b4bd f6be 1cbe b6a3 0dbb
000002b0: 0adc 8b3d 1f48 16be 447a 17be 00d7 11bb
000002c0: 6c81 14bd d026 e73d 5765 2fbe a9da e6bc
000002d0: f046 0cbe fac2 d5bc 4bf9 b8bd d0e1 633d
000002e0: c5a9 17be a50a 0fbe 6d2f cfbd 1f8b 1ebe
000002f0: b48a e43d 283f cfbc 693d c9bd dab0 fd3d
00000300: 79d1 bdbc 75c2 b53d 1f78 04bd 2e70 00be
00000310: 4366 e03c f5fe 173e 3534 27be a465 bb3c
00000320: 2918 2e3d b267 3b3c 1a85 cc3c ee92 6abd
00000330: 81b4 0ebe 52fa 183d 4a49 f9bd e418 17be
00000340: a76d 84bd 4b4a fdbd a6bc 4a3d 6103 2d3e
00000350: 54f7 043e b593 9ebd 0481 d23d c6f0 083e
00000360: 263c dc3c 2e69 393d 13f0 b83d 3ee6 013e
00000370: eb0d a73d c20a f73d 993c 97bc 7ec5 b6bd
00000380: 7d99 adbd 0ff3 143e ba7e 36bd c6e8 9b3b
00000390: 85c0 28be c875 35bc ce20 4fbd 5039 ebbd
000003a0: 29a8 0b3e a439 12be 1be2 dbbc a810 50bc
000003b0: a0e0 23be b033 da3d e4ba 65bd dcb2 a23d
000003c0: 69db ca3d 89d5 1e3e 7bc8 333d d397 053e
000003d0: f169 273e 2fb4 073d a4a3 15bd 603c 46bd
000003e0: 11eb da3c 9b2d 843d adeb 2abe 58fa 073e
000003f0: 9ab0 e83c 064a 2bbe 2694 5a3d 8bca e43d
-0.16376933 0.0327774 -0.011268064 0.06386404 -0.08992276 -0.12619886 0.12048809 -0.08506507
0.12435089 0.14333157 -0.12362574 -0.08150117 0.021280497 -0.16667674 0.054289475 -0.07365613
-0.07837885 -0.13666019 0.0826994 -0.11265043 -0.14129794 -0.046487957 -0.09841192 -0.17186193
0.071243554 -0.06725748 0.12382598 0.124436155 -0.11274298 -0.103055954 -0.06274812 0.10354783
0.0038425867 -0.06349742 0.124637455 0.18318525 0.1326906 -0.1120872 -0.032595903 -0.025950506
0.15405361 -0.09176526 -0.08506091 0.0041751494 -0.041631293 0.07129581 0.020916605 -0.10584409
0.1278231 0.11538068 0.03863935 -0.13363737 0.08216327 0.13891804 0.05253966 -0.064317554
0.028182946 -0.067591384 0.16968243 0.16996315 -0.021552417 -0.09350557 0.13361648 0.095623046
0.10894691 -0.13301612 0.080301054 -0.054747716 -0.15364759 -0.08997608 0.08238744 0.07364529
-0.14899619 0.100519486 0.1614983 0.13540421 0.09981565 -0.020168474 0.118452 0.13839488
0.09220969 -0.12317581 -0.061508093 0.17916524 0.13477035 0.14249822 -0.06847478 -0.02745071
-0.10928671 -0.09905645 0.1381547 -0.14509457 -0.043506708 0.07748866 -0.06261105 0.049611423
-0.02832228 0.07077456 -0.1351763 0.025041647 -0.15990032 0.11009486 0.1717156 -0.06196665
0.026140004 -0.09058443 -0.11307358 -0.08908732 -0.08421587 0.033556104 -0.020207526 0.012407272
-0.1351822 -0.10977458 -0.15280686 -0.12679785 0.14828244 0.06629341 -0.16859175 -0.029504776
0.014699946 0.09651597 0.16539724 0.043069366 0.12513182 -0.06279171 -0.005265624 -0.10671415
0.06124162 0.16254377 0.13904777 0.20417944 -0.08021967 0.024323178 0.046781104 0.151866
-0.15413742 -0.08858174 0.060768098 -0.101247564 0.06551986 -0.001981963 -0.046570558 0.09451748
0.124515705 0.17630385 0.07918962 0.047846626 0.14279987 0.18083154 -0.0810965 0.09018654
0.051557288 -0.081424624 -0.04135685 -0.043564655 -0.12656306 0.00023676375 0.11878568 0.14102343
0.013428003 -0.17119083 0.09329414 -0.053882323 0.15720795 -0.17081578 -0.041359857 0.13643374
0.07647376 -0.08827804 -0.15307221 -0.0021612472 0.068290785 -0.1467595 -0.14792734 -0.0022253394
-0.03625624 0.112867 -0.17128502 -0.028180437 -0.13698936 -0.026093949 -0.09031924 0.055635273
-0.14810856 -0.13968904 -0.101164676 -0.15482758 0.11159268 -0.02529867 -0.09826166 0.123872474
-0.023171173 0.0887498 -0.03234112 -0.12542793 0.027392512 0.14843352 -0.16328509 0.022875614
0.04250351 0.011438297 0.024965812 -0.05726903 -0.13936044 0.0373481 -0.12172182 -0.14755589
-0.06466227 -0.12367686 0.049496315 0.1689582 0.12984973 -0.07743017 0.10278514 0.13373098
0.02688415 0.045266323 0.090301655 0.12685487 0.081569515 0.12062599 -0.018461512 -0.089243874
-0.08476541 0.14545844 -0.04455445 0.0047579734 -0.1647969 -0.0110754445 -0.050568394 -0.11485541
0.13638367 -0.142798 -0.026841214 -0.012699284 -0.16003656 0.1065439 -0.056086436 0.07944271
0.099051304 0.15511145 0.043892365 0.13046198 0.16349007 0.03313082 -0.036533013 -0.04839742
0.026723417 0.06454011 -0.16691466 0.13279092 0.028404523 -0.16727456 0.05336394 0.111714445

layer2.bias f4 [16]
00000000: 008e f63c a8ee 043e 1b07 d63d 47ef ba3d
00000010: 50a4 2a3e 6afb b43c be3f 3b3e aa19 d63d
00000020: 5abe 1cbd 2b99 a7bd 3bcf 703d 17b6 5c3e
00000030: d0f5 d93d f8b4 92bd b430 5dbd 82c8 b43d
0.030097008 0.12981665 0.10450574 0.0912767 0.16664243 0.02209254 0.18286034 0.10454114
-0.03826747 -0.08183511 0.05879138 0.21553837 0.10642588 -0.07163423 -0.054001525 0.08827306

layer3.weight f4 [8, 16]
00000000: 70e9 c03d 25a5 853e 3dc3 123e 6ffe ab3d
00000010: 7257 f33d c3d0 6fbe 0806 5fbd 99f9 1f3d
00000020: ea68 1fbe cfff 5abe 76d7 3b3e 293e 223e
00000030: c44a 3cbe 201b 733c 0acc 193e b9de 2a3e
00000040: 0ac8 693e 4472 cabd a8fa e33d a4a9 4fbe
00000050: b09e fcbc 9ad0 22be 58fc 42bd 92bc 113e
00000060: a83e ff3d e6a8 06be 70eb 7dbd 48db 4cbd
00000070: 4cc7 c2bd 423c 0cbe fafa 3b3e 68f4 303e
00000080: 42b7 553e 9492 0cbe 1c77 3b3e 1c41 9bbd
00000090: 8894 70bd 0cd9 89bd 002b 47bc 3c34 e0bd
000000a0: 400a 0c3d 7e00 25be 5894 d23d fcaf 56be
000000b0: a89c b9bd fecd 32be 90b0 2c3e 66e2 2f3e
000000c0: 729c 4bbe 862e 09be 62eb 723e f433 913d
000000d0: 7a6a 513e 0031 44be 4ae7 fe3d 2426 263e
000000e0: 05d8 5dbd 942b f8bb d3cb 443e b492 e13d
000000f0: 7cf1 943d 0056 473a ec58 d3bd bec3 12be
00000100: ea77 7f3e f0c9 a1bc 962e 633e 7675 513e
00000110: 7cdd 05be a034 8b3c 94f6 82bd c0be 94bb
00000120: 34b8 283e 86f7 0c3e c267 11be d457 fdbd
00000130: fadc 35be 945a 59be 0239 243e e62f 1ebe
00000140: 801d 563b 9727 953b 1b2f ad3d 8c00 c3bc
00000150: 626e 773e a80d 103d 81b3 583e f673 863d
00000160: bb06 373c 88be 493d 2963 463e 38b1 383e
00000170: a4e4 363e 5034 c2bc 2413 f33b f7d0 763e
00000180: f2af 71be 181c e43c 4832 723e c076 00be
00000190: 3da7 f5bc a0c6 76bc 3839 ba3d f7b6 c43d
000001a0: 0799 723d 3436 ce3d 0b4b cdbd fdf1 013e
000001b0: c058 a0bd a8da 203e d3b0 95bd a43b 54be
000001c0: 4043 923c faae 0e3e 2b55 a63c b372 1fba
000001d0: 09b7 a63d 0b6f 083e 4fbb 483d 8e65 5abe
000001e0: f2f8 28be 7d11 c53c 0572 49b8 f667 ae3e
000001f0: 12c1 55bd 3aeb 433e 080c 54be 8080 5abe
0.09419525 0.26102558 0.1433229 0.08398139 0.11881913 -0.2341948 -0.05444911 0.039056394
-0.15567365 -0.21386646 0.1834391 0.15844025 -0.18387896 0.01483801 0.15019241 0.16686524
0.22830215 -0.09885076 0.11131793 -0.20279557 -0.030837387 -0.15899888 -0.047603935 0.1423209
0.124631226 -0.13150367 -0.06199211 -0.05001381 -0.09510669 -0.13694862 0.18357459 0.17280734
0.20870689 -0.1372779 0.18307155 -0.07580778 -0.0587354 -0.067308515 -0.012156248 -0.10947463
0.034189463 -0.16113469 0.102822006 -0.2096557 -0.09063083 -0.17461392 0.16864228 0.17176208
-0.19883898 -0.13396654 0.23722604 0.070899874 0.20450774 -0.19159317 0.12446459 0.16225487
-0.05416109 -0.0075735543 0.19218378 0.110143095 0.07272622 0.00076040626 -0.10319695 -0.14332482
0.24948087 -0.019749612 0.2218574 0.20454964 -0.13072771 0.016992867 -0.06394687 -0.0045393407
0.16476518 0.13766298 -0.14199737 -0.123702675 -0.17760077 -0.21225959 0.16037372 -0.1544796
0.0032671392 0.0045518386 0.0845625 -0.023803972 0.24163201 0.035169274 0.21162225 0.065650865
0.011171038 0.04925397 0.19373764 0.18036354 0.17860657 -0.023706585 0.007418053 0.24103151
-0.23602274 0.027845427 0.23651993 -0.125453 -0.029986972 -0.015062004 0.09092945 0.0960521
0.05922797 0.10068932 -0.10024079 0.12689967 -0.07829428 0.1570841 -0.07309117 -0.20725876
0.017854333 0.13933936 0.020304283 -0.000608246 0.0814038 0.1332361 0.049006756 -0.21327803
-0.16501215 0.02405619 -4.8028323e-05 0.3406369 -0.05218608 0.191327 -0.20707715 -0.21338081

layer3.bias f4 [8]
00000000: a75b e33d f217 22be bc4f 95bd e104 893d
00000010: 540f 5ebe c75a a73e 3d3a 0cbe 77a2 a13e
0.11101466 -0.15829447 -0.07290599 0.06690384 -0.21685535 0.32686445 -0.13694091 0.31569263

layer5.weight f4 [5, 8]
00000000: 06a2 333e fcca 87bd 3f6b 9ebe 63a7 173e
00000010: 8241 4abe b397 033f e250 97be 3af9 343d
00000020: f1f9 26be 0cd9 68be 18d4 3cbe f181 193c
00000030: 40ef c33c 5e20 e23d 9609 3c3e 9968 c6bd
00000040: 352a 61be ec8f 98bd ed95 aa3e 6506 0ebd
00000050: b664 98be e479 843e 9983 b03d 0e05 7e3d
00000060: 38ba c83d d297 7c3e 1fda 24be 9750 9f3e
00000070: 5711 ae3e 1911 f23b c0c9 663e dd31 883e
00000080: 7478 c53e 7c85 a8bd 425d 57be 6b81 52bd
00000090: f84f 76be 0303 3f3e b833 af3e c104 ed3e
0.17542276 -0.06630513 -0.30941197 0.14809947 -0.19751552 0.5140335 -0.29553896 0.044182993
-0.16306283 -0.22739047 -0.18440282 0.009369359 0.023917794 0.1104133 0.18363032 -0.09687919
-0.21988757 -0.07449326 0.3331751 -0.034674067 -0.29764336 0.25874245 0.0861885 0.06201654
0.098011434 0.2466729 -0.16098832 0.31116173 0.33997604 0.007387292 0.22537899 0.26600543
0.3856846 -0.08228585 -0.21031669 -0.051392954 -0.24053943 0.18653493 0.34219146 0.4629269

layer5.bias f4 [5]
00000000: c5b6 233f 4999 a33d 9095 acbc 9bbf c23e
00000010: b4fa 033f
0.6395076 0.07988221 -0.02106741 0.38036808 0.5155442
