DeepOPF+/3.adversarial_sample_algorithm/2.adversary_training/S-PTH/PreDCOPF_case30_0.93_dnn_1.pth (torch_old, 6824 bytes, 8 tensors)

layer1.weight f4 [32, 20]
0.12684257 -0.0987444 -0.046339255 0.10696327 -0.19501455 0.13643079 -0.04015551 0.11507035
0.035242777 -0.024245538 0.06451636 0.012936076 0.08323061 -0.085937455 -0.0143759465 -0.021215713
0.030682344 -0.00013742923 0.1959319 0.0717154 -0.07729674 -0.13079247 -0.035118874 -0.08973221
-0.064822435 0.012716001 0.13513745 0.12224294 -0.21337675 0.13909185 0.06480329 0.20826958
0.14842269 -0.19846764 -0.20603438 -0.10803503 0.19715759 -0.03371735 0.09250587 -0.10447687
0.25383013 -0.09483945 0.15589918 0.00053701765 -0.058664467 0.11344905 -0.10519785 0.062445156
-0.05454734 -0.018340334 -0.21792682 -0.10358398 0.11621496 -0.049669012 0.20646517 0.16607583
-0.03321541 -0.16017236 0.13384107 0.0976077 -0.106544085 0.14677384 0.13206547 0.21005082
-0.061234508 -0.032065134 0.013018546 0.03842815 -0.16347164 -0.15083972 0.12715022 -0.05015825
0.111208 0.020965632 0.074318774 0.046148583 0.07421189 0.1089262 -0.20883232 0.13624403
-0.16709873 -0.16899528 0.015076653 -0.04310452 0.09617913 -0.13233328 -0.20536308 0.16011609
-0.03891915 0.12120052 0.06742437 -0.16610642 0.040963624 0.04416524 -0.1573801 -0.10443028
0.07078733 0.035930607 -0.089872144 -0.062960215 0.1918422 -0.030863265 0.13325305 0.11007785
-0.13798511 -0.17534786 0.21276458 0.020731026 0.15209271 0.04674062 0.08445868 0.16139464
0.22491598 -0.13865815 0.06763657 0.1749202 0.18798152 0.15686567 -0.16093448 -0.18811172
-0.14718825 0.024057016 0.21935637 -0.15130712 0.08931179 -0.12874226 -0.2189362 -0.05309179
0.12401402 0.20187528 -0.1446414 0.04805989 0.18248586 0.14037348 0.12704985 0.15633254
0.13167952 0.048553333 -0.15338019 -0.18709849 -0.058805183 -0.026330568 -0.13656738 0.096293494
0.1646506 -0.03759738 0.1099668 0.08297772 0.14778124 0.15997666 -0.062584095 0.21641941
-0.011437505 0.003410852 -0.18448053 -0.14021952 -0.12168358 -0.08322898 0.16088587 -0.06521393
-0.18012051 0.08273912 0.071095 0.13575126 -0.14038357 0.040889636 -0.09140299 -0.056780867
-0.18210597 -0.10744412 -0.07673975 0.093431555 0.032164477 0.04899077 0.20846298 0.21488805
0.14374082 0.00036360507 -0.1544933 0.18030131 -0.07797755 -0.017188286 -0.18982603 -0.05051226
-0.1839885 0.20136888 -0.20167156 -0.17835411 -0.015406461 -0.12745124 0.07216421 -0.086223535
-0.108635075 0.00523674 0.15212142 -0.15513028 0.102154896 0.14089498 0.22007108 -0.15721893
0.07714371 -0.16050552 0.1920771 -0.078854054 0.19239718 0.014977653 -0.00064065214 -0.0041269977
0.046739087 0.11324307 0.045231692 0.0722373 -0.19386257 0.17547339 0.21320231 0.1871929
0.17281233 -0.1519284 -0.08480853 0.19990955 -0.19297208 0.19878379 -0.17667058 -0.17161508
0.047609676 -0.16841978 -0.06901906 0.15183747 0.16845515 0.20139708 -0.056307618 -0.17009155
0.20467088 -0.056825012 -0.116070114 0.05027206 -0.16935027 0.13430673 0.13627712 -0.17387426
-0.2046088 -0.020621167 0.09270001 -0.016570996 -0.15025072 -0.0008419066 -0.22010507 -0.16381629
-0.1546919 0.17695515 0.19127996 -0.07641345 -0.0019369352 0.091257304 0.011321712 -0.11278649
00000000: 05e3 013e 813a cabd 3bce 3dbd 8f0f db3d
00000010: e5b1 47be 83b4 0b3e 1b7a 24bd 01aa eb3d
00000020: bb5a 103d 949e c6bc 2721 843d d6f1 533c
00000030: cf74 aa3d faff afbd 1789 6bbc 93cc adbc
00000040: 8a59 fb3c e11a 10b9 5fa2 483e 86df 923d
00000050: c14d 9ebd 76ee 05be cfd8 0fbd 85c5 b7bd
00000060: a0c1 84bd c656 503c 7961 0a3e 825a fa3d
00000070: 6f7f 5abe 186e 0e3e 96b7 843d 9f44 553e
00000080: 1efc 173e 1a3b 4bbe adfa 52be 7841 ddbd
00000090: aee3 493e 341b 0abd b873 bd3d f8f7 d5bd
000000a0: 06f6 813e 303b c2bd 09a4 1f3e a5c6 0c3a
000000b0: 274a 70bd fa57 e83d f871 d7bd 7ec6 7f3d
000000c0: 086d 5fbd 783e 96bc 3528 5fbe d623 d4bd
000000d0: 1c02 ee3d bc71 4bbd 9b6b 533e c80f 2a3e
000000e0: e20c 08bd 3904 24be a20d 093e 8ce6 c73d
000000f0: c933 dabd e24b 163e 2c3c 073e 9017 573e
00000100: 09d1 7abd bb56 03bd bd4b 553c d666 1d3d
00000110: 1c65 27be ba75 1abe ab33 023e bd72 4dbd
00000120: 05c1 e33d 1ec0 ab3c 7134 983d 4c06 3d3d
00000130: 67fc 973d b314 df3d 24d8 55be 8e83 0b3e
00000140: ee1b 2bbe 190d 2dbe 1104 773c 5d8e 30bd
00000150: 90f9 c43d 6082 07be b34a 52be 79f5 233e
00000160: b069 1fbd fa37 f83d ca15 8a3d cd17 2abe
00000170: 79c9 273d 9ce6 343d 4028 21be 8bdf d5bd
00000180: f3f8 903d f92b 133d e30e b8bd 49f1 80bd
00000190: 4872 443e f5d4 fcbc 7d73 083e 7f70 e13d
000001a0: f84b 0dbe 648e 33be f5de 593e 1dd4 a93c
000001b0: 31be 1b3e 1873 3f3d acf8 ac3d a344 253e
000001c0: 6050 663e 67fc 0dbe 0b85 8a3d 481e 333e
000001d0: 3a7e 403e 65a1 203e 02cc 24be 5ca0 40be
000001e0: 84b8 16be 3813 c53c f59e 603e 41f0 1abe
000001f0: 1ae9 b63d 03d5 03be d030 60be c776 59bd
00000200: 10fb fd3d 65b8 4e3e e01c 14be 72da 443d
00000210: 93dd 3a3e 11be 0f3e 5b19 023e a315 203e
00000220: ffd6 063e dcdf 463d b20f 1dbe bf96 3fbe
00000230: b4dd 70bd 34b3 d7bc 52d8 0bbe 8635 c53d
00000240: 2b9a 283e b6ff 19bd 4636 e13d 39f0 a93d
00000250: f753 173e ecd0 233e 172c 80bd 0d9d 5d3e
00000260: 5f64 3bbc 9a88 5f3b 77e8 3cbe b595 0fbe
00000270: 3e35 f9bd f573 aabd 44bf 243e e28e 85bd
00000280: 8371 38be 2173 a93d 419a 913d 6102 0b3e
00000290: b6c0 0fbe e47b 273d 7e31 bbbd 0e93 68bd
000002a0: fd79 3abe aa0b dcbd bb29 9dbd 0b59 bf3d
000002b0: e6be 033d 8caa 483d 5277 553e 9d0b 5c3e
000002c0: cb30 133e 3fa2 be39 7e33 1ebe e8a0 383e
000002d0: b2b2 9fbd 73ce 8cbc c161 42be f2e5 4ebd
000002e0: 7b67 3cbe a533 4e3e fd82 4ebe 76a2 36be
000002f0: 626b 7cbc 9482 02be d4ca 933d f795 b0bd
00000300: 117c debd f698 ab3b b8c5 1b3e 79da 1ebe
00000310: 9636 d13d c646 103e 505a 613e 00fe 20be
00000320: 85fd 9d3d 8f5b 24be dcaf 443e 3c7e a1bd
00000330: c403 453e d464 753c 70f1 27ba c43b 87bb
00000340: 7c71 3f3d fceb e73d de44 393d 26f1 933d
00000350: e983 46be 4caf 333e b551 5a3e 7faf 3f3e
00000360: b7f5 303e 1e93 1bbe 18b0 adbd 17b5 4c3e
00000370: 799a 45be fa8d 4b3e 22e9 34be ddbb 2fbe
00000380: 5d02 433d 3c76 2cbe dd59 8dbd 487b 1b3e
00000390: 827f 2c3e 093b 4e3e d1a2 66bd 7b2c 2ebe
000003a0: 3e95 513e 58c1 68bd 2bb6 edbd 13ea 4d3d
000003b0: 286a 2dbe b487 093e 3b8c 0b3e 180c 32be
000003c0: f884 51be b9ed a8bc 81d9 bd3d e6bf 87bc
000003d0: 53db 19be 65b3 5cba 3963 61be 75bf 27be
000003e0: 8e67 1ebe bb33 353e e5de 433e a87e 9cbd
000003f0: c3e0 fdba 1ce5 ba3d b47e 393c 9afc e6bd

layer1.bias f4 [32]
-0.02095441 -0.08062737 0.17335035 0.18428506 0.14058511 0.102963194 -0.1838161 0.22215098
-0.19416976 -0.06308936 -0.13537446 0.07396803 -0.17323159 -0.080904484 -0.14007762 -0.14371143
-0.1069551 0.22079925 -0.012925108 0.078947544 -0.23068205 0.24951382 -0.051572476 -0.19392341
0.19351707 -0.06185463 0.21243215 -0.15263854 -0.21444912 -0.16750081 0.107687525 0.006952184
00000000: 95a8 abbc f61f a5bd c182 313e 39b5 3c3e
00000010: 8bf5 0f3e 5ede d23d 4a3a 3cbe 8c7b 633e
00000020: 70d4 46be ff34 81bd 9a9f 0abe 8d7c 973d
00000030: 9f63 31be 40b1 a5bd 8270 0fbe 1729 13be
00000040: 470b dbbd 3319 623e d5c3 53bc 40af a13d
00000050: ea37 6cbe 8d80 7f3e a93d 53bd dc93 46be
00000060: 5729 463e 485b 7dbd d087 593e 474d 1cbe
00000070: 8d98 5bbe 5585 2bbe 478b dc3d 25cf e33b

layer2.weight f4 [16, 32]
-0.16372652 0.03382403 -0.010691764 0.0624387 -0.09015943 -0.1281335 0.116985336 -0.0844538
0.12358798 0.14290033 -0.124160744 -0.081985906 0.020484414 -0.16667978 0.05329759 -0.07350418
-0.07811472 -0.13805276 0.08298342 -0.1132526 -0.14147039 -0.047477737 -0.09977465 -0.17235063
0.06897638 -0.065611504 0.12644148 0.12419348 -0.11266423 -0.103101484 -0.063015364 0.10110348
-0.00799542 -0.06691981 0.11906428 0.12780768 0.15420434 -0.15673625 -0.05497005 0.04055557
0.11833589 -0.1260437 -0.06511163 0.02536022 -0.06938564 0.117408104 0.007921076 -0.09066695
0.14762434 0.085240744 0.05098084 -0.18461391 0.06424032 0.1413871 0.029563284 -0.078534566
0.0731605 -0.05257338 0.1698402 0.15581116 -0.012286176 -0.0789263 0.11319236 0.11933183
0.09027899 -0.13896634 0.067792356 -0.08066696 -0.14547193 -0.10733596 0.08432853 0.08992699
-0.16302212 0.08508038 0.16273832 0.1436602 0.08694944 -0.0032903736 0.11415021 0.13904375
0.095320985 -0.12262939 -0.06102604 0.13885584 0.12381696 0.13688664 -0.06972792 -0.027419975
-0.08434914 -0.11375231 0.12566198 -0.1482177 -0.044894956 0.058183797 -0.09282643 0.06970656
-0.027494512 0.0720649 -0.1344774 0.023986567 -0.1594646 0.11256388 0.17218633 -0.057967853
0.0252744 -0.09084814 -0.11103888 -0.08793985 -0.084659085 0.038899634 -0.020426016 0.013505228
-0.13498208 -0.11029431 -0.15223522 -0.12628916 0.14848776 0.067523904 -0.16819802 -0.029454155
0.01794121 0.098054476 0.1668865 0.04346413 0.12501532 -0.060637932 -0.0037788386 -0.105178125
0.027302433 0.12836221 0.12678114 0.16576655 -0.07152344 0.0309263 0.063193284 0.1822929
-0.18905625 -0.13057868 0.094011135 -0.08786905 0.028944664 0.048272584 -0.06223937 0.08702869
0.12683976 0.1782384 0.07656078 -0.002714332 0.11361705 0.20930693 -0.08302136 0.10367446
0.15597242 -0.13335098 -0.08746016 -0.07171392 -0.1357416 0.0060009374 0.10002779 0.20494485
0.012658843 -0.17165016 0.09285608 -0.053879358 0.15623604 -0.17083861 -0.04148647 0.13459162
0.076367304 -0.089094006 -0.15318546 -0.0043061012 0.067687094 -0.14693001 -0.14812386 -0.0034171965
-0.03662226 0.1122214 -0.17156368 -0.028320732 -0.13699898 -0.026935592 -0.09086607 0.055182878
-0.14834897 -0.13949332 -0.10067345 -0.15515861 0.110632256 -0.025603708 -0.09867998 0.122282304
-0.048089053 0.06583628 -0.043436017 -0.14277685 0.035726316 0.15330127 -0.15340085 0.026589256
0.026649678 -0.004389952 0.034460165 -0.052608933 -0.15428779 0.06042089 -0.12584834 -0.15409245
-0.061491296 -0.11107017 0.048355028 0.13404515 0.118142426 -0.069971696 0.10561061 0.1436035
0.081367746 0.024614291 0.065788716 0.1162764 0.08234861 0.10971581 -0.03870008 -0.055798993
-0.08188652 0.14254394 -0.036681157 0.024939837 -0.16638288 0.024021022 -0.034495365 -0.12625767
0.14407839 -0.13716254 -0.020856982 -0.012266186 -0.15625945 0.10601505 -0.051487077 0.074647404
0.09175815 0.17047158 0.037985098 0.14558089 0.16287516 0.04421109 -0.023825772 -0.03571947
0.040929765 0.04832588 -0.17183422 0.13488209 0.021807363 -0.16180511 0.07018653 0.12211214
00000000: eda7 27be 118b 0a3d 822c 2fbc b9bf 7f3d
00000010: 82a5 b8bd 6e35 03be 0296 ef3d 1df6 acbd
00000020: b21b fd3d 7754 123e fd47 febd 3ae8 a7bd
00000030: eece a73c 1bae 2abe 934e 5a3d 5c89 96bd
00000040: 9cfa 9fbd b45d 0dbe 36f3 a93d fbf0 e7bd
00000050: 9ddd 10be 0478 42bd a756 ccbd af7c 30be
00000060: 7d43 8d3d 535f 86bd e079 013e 2759 fe3d
00000070: 81bc e6bd df26 d3bd 330e 81bd 570f cf3d
00000080: 39ff 02bc 410d 89bd f9d7 f33d 04e0 023e
00000090: bee7 1d3e 787f 20be 4628 61bd 991d 263d
000000a0: 165a f23d 9a11 01be 3f59 85bd 3cc0 cf3c
000000b0: 0f1a 8ebd a973 f03d 67c7 013c 98af b9bd
000000c0: d62a 173e b392 ae3d 49d1 503d 6e0b 3dbe
000000d0: 6e90 833d c8c7 103e b32e f23c bbd6 a0bd
000000e0: 2cd5 953d 2f57 57bd 97ea 2d3e f68c 1f3e
000000f0: f54b 49bc 1da4 a1bd 65d1 e73d 3f64 f43d
00000100: 31e4 b83d 314d 0ebe b8d6 8a3d b834 a5bd
00000110: 98f6 14be f5d2 dbbd 70b4 ac3d a42b b83d
00000120: 45ef 26be 9f3e ae3d e0a4 263e a91b 133e
00000130: 8c12 b23d 4fa3 57bb 96c7 e93d 7c61 0e3e
00000140: a637 c33d 1e25 fbbd 71f6 79bd 3a30 0e3e
00000150: bf93 fd3d 032c 0c3e 83cd 8ebd db9f e0bc
00000160: 3ebf acbd f9f6 e8bd 89ad 003e 61c6 17be
00000170: c6e3 37bd 2252 6e3d c91b bebd 50c2 8e3d
00000180: 2c3c e1bc c396 933d 72b4 09be 7a7f c43c
00000190: b04a 23be e487 e63d 9d51 303e b36f 6dbd
000001a0: 420c cf3c 970e babd 5a68 e3bd cf19 b4bd
000001b0: be61 adbd 3955 1f3d 7654 a7bc 0845 5d3c
000001c0: be38 0abe fce1 e1bd 8de3 1bbe f251 01be
000001d0: 2d0d 183e f949 8a3d 1a3c 2cbe d749 f1bc
000001e0: 72f9 923c c9d0 c83d 4be4 2a3e 7207 323d
000001f0: 0404 003e 7b5f 78bd 64a6 77bb a167 d7bd
00000200: 5aa9 df3c 6271 033e ead2 013e b5be 293e
00000210: e27a 92bd 2759 fd3c 7b6b 813d fdaa 3a3e
00000220: f697 41be 6bb6 05be e988 c03d b0f4 b3bd
00000230: 5c1d ed3c 79b9 453d b6ee 7ebd 193c b23d
00000240: 48e2 013e 2184 363e e6cb 9c3d efe2 31bb
00000250: 0eb0 e83d 8e54 563e 1a07 aabd 4653 d43d
00000260: 3cb7 1f3e 298d 08be 501e b3bd bfde 92bd
00000270: d9ff 0abe 83a3 c43b 5fdb cc3d 10dd 513e
00000280: 0967 4f3c 0fc5 2fbe 542b be3d 9ab0 5cbd
00000290: 57fc 1f3e 51f0 2ebe b7ed 29bd 63d2 093e
000002a0: 7666 9c3d eb76 b6bd a6dc 1cbe 321a 8dbb
000002b0: 889f 8a3d d274 16be c8ad 17be 0bf3 5fbb
000002c0: 3901 16bd 55d4 e53d 64ae 2fbe e100 e8bc
000002d0: 7649 0cbe 08a8 dcbc fd17 babd 7107 623d
000002e0: cbe8 17be 56d7 0ebe e22d cebd e6e1 1ebe
000002f0: 2a93 e23d debe d1bc bb18 cabd 256f fa3d
00000300: 07f9 44bd 2cd5 863d f7e9 31bd 1834 12be
00000310: c255 123d 02fb 1c3e 1d15 1dbe b6d1 d93c
00000320: 6d50 da3c 96d9 8fbb 1a26 0d3d 777c 57bd
00000330: 9efd 1dbe e57b 773d 63de 00be 69ca 1dbe
00000340: 4cde 7bbd c278 e3bd ec0f 463d 2243 093e
00000350: a8f4 f13d 524d 8fbd 604a d83d cc0c 133e
00000360: 22a4 a63d e9a3 c93c 3cbc 863d 5222 ee3d
00000370: 63a6 a83d afb2 e03d fa83 1ebd 7c8d 64bd
00000380: 1fb4 a7bd 0af7 113e fb3e 16bd a14e cc3c
00000390: 4660 2abe bcc7 c43c 034b 0dbd b149 01be
000003a0: 4989 133e 5674 0cbe 43dc aabc 1df8 48bc
000003b0: 7a02 20be 6b1e d93d 1de4 52bd bde0 983d
000003c0: b2eb bb3d 1a90 2e3e 4396 1b3d 2813 153e
000003d0: bfc8 263e b016 353d 442e c3bc 944e 12bd
000003e0: f8a5 273d 5cf1 453d 4ff5 2fbe 881e 0a3e
000003f0: 5ba5 b23c 3db0 25be f5bd 8f3d ee15 fa3d

layer2.bias f4 [16]
0.03270277 0.1732612 0.09958526 0.09648606 0.16772859 0.019281134 0.1690547 0.11105417
-0.068053685 -0.060139235 0.056689873 0.22005025 0.10500479 -0.07883305 -0.040224656 0.11181439
00000000: 57f3 053d 626b 313e 5bf3 cb3d 7c9a c53d
00000010: 0bc1 2b3e 78f3 9d3c ad1c 2d3e 5e70 e33d
00000020: bb5f 8bbd 8f54 76bd a433 683d da54 613e
00000030: c00c d73d 3973 a1bd 9cc2 24bd f1fe e43d

layer3.weight f4 [8, 16]
0.09309163 0.29867464 0.15891865 0.085510135 0.11421921 -0.23172817 -0.04063791 0.0247973
-0.12957336 -0.23257807 0.1723432 0.10858923 -0.15743382 0.010771493 0.17170173 0.20031539
0.22830215 -0.09886222 0.11131418 -0.20279557 -0.030783277 -0.15899906 -0.04759172 0.14228112
0.12457926 -0.13150379 -0.06199505 -0.049967628 -0.09512137 -0.13694921 0.18349652 0.17278576
0.20870431 -0.13746734 0.18270561 -0.07581189 -0.058990076 -0.06731938 -0.012274203 -0.10949967
0.03372671 -0.16114075 0.10280635 -0.2097733 -0.0907611 -0.174618 0.16830318 0.17153595
-0.19900228 -0.11366139 0.21938767 0.06825864 0.24865368 -0.19124745 0.12134491 0.1802177
-0.055756353 0.0076265815 0.18433435 0.12629867 0.08661544 -0.002358127 -0.08540684 -0.13960837
0.24948087 -0.019777834 0.22183563 0.20454964 -0.13073549 0.016992627 -0.06395481 -0.004539735
0.1647292 0.13766211 -0.14199737 -0.12370812 -0.17760107 -0.21225959 0.1603409 -0.1544801
-0.004090726 0.04947877 0.063711494 -0.039182976 0.32572627 0.037167482 0.18338019 0.08651928
0.017480664 0.06502773 0.18386626 0.19366297 0.2171683 -0.041058484 0.065050595 0.2692946
-0.23602295 0.020960927 0.22415912 -0.12562321 -0.052474912 -0.015066764 0.07861312 0.09173949
0.05594533 0.09883503 -0.10731562 0.09921674 -0.07927921 0.15493429 -0.07533237 -0.21270227
0.012424974 0.17765954 0.015643485 -0.008417555 0.09893831 0.13612491 0.044231575 -0.21904898
-0.14486709 0.016486285 -0.008279946 0.29942995 -0.013632658 0.17908232 -0.1742863 -0.16693392
00000000: d3a6 be3d e2eb 983e 92bb 223e f01f af3d
00000010: c3eb e93d 264a 6dbe f073 26bd b523 cb3c
00000020: e1ae 04be f228 6ebe bc7a 303e 0864 de3d
00000030: 5536 21be eb7a 303c 94d2 2f3e 7a1f 4d3e
00000040: 0ac8 693e 4778 cabd b0f8 e33d a4a9 4fbe
00000050: 362d fcbc a6d0 22be 89ef 42bd 24b2 113e
00000060: 6923 ff3d eea8 06be 86ee 7dbd dbaa 4cbd
00000070: fece c2bd 6a3c 0cbe 83e6 3b3e c0ee 303e
00000080: 95b6 553e 3dc4 0cbe 2e17 3b3e 4443 9bbd
00000090: 949f 71bd bede 89bd bd19 49bc 5d41 e0bd
000000a0: 0525 0a3d 1502 25be 238c d23d d0ce 56be
000000b0: f5e0 b9bd 10cf 32be ab57 2c3e 1fa7 2f3e
000000c0: 41c7 4bbe 4ec7 e8bd 29a7 603e 30cb 8b3d
000000d0: 129f 7e3e 5fd6 43be ae83 f83d fd8a 383e
000000e0: c660 64bd 67e8 f93b 25c2 3c3e 7054 013e
000000f0: 7063 b13d ce8a 1abb c8e9 aebd 7ff5 0ebe
00000100: ea77 7f3e 2005 a2bc e128 633e 7675 513e
00000110: 86df 05be 1f34 8b3c bdfa 82bd 0fc2 94bb
00000120: c5ae 283e 4cf7 0c3e c267 11be af5a fdbd
00000130: 0edd 35be 945a 59be 6830 243e 0830 1ebe
00000140: 7f0b 86bb 40aa 4a3d 2c7b 823d 547e 20bd
00000150: 98c5 a63e ee3c 183d 04c8 3b3e 0531 b13d
00000160: 9c33 8f3c 422d 853d 7047 3c3e 964f 463e
00000170: 5e61 5e3e f12c 28bd 3f39 853d fbe0 893e
00000180: 00b0 71be 40b6 ab3c f889 653e 5fa3 00be
00000190: efef 56bd 97da 76bc eaff a03d eae1 bb3d
000001a0: ee26 653d 056a ca3d 4bc8 dbbd 2532 cb3d
000001b0: 235d a2bd 18a7 1e3e dc47 9abd a0ce 59be
000001c0: 1e92 4b3c 62ec 353e c426 803c c9e9 09bc
000001d0: 2ba0 ca3d 5464 0b3e 2b2c 353d 604e 60be
000001e0: 0a58 14be 3f0e 873c 9ca8 07bc e24e 993e
000001f0: 835b 5fbc 5b61 373e 1c78 32be baf0 2abe

layer3.bias f4 [8]
0.20616557 -0.15835096 -0.07365308 0.06777234 -0.21691969 0.3207112 -0.16325638 0.33573976
00000000: 111d 533e c126 22be 6dd7 96bd 39cc 8a3d
00000010: 3220 5ebe 4234 a43e ae2c 27be 15e6 ab3e

layer5.weight f4 [5, 8]
0.2129639 -0.06626533 -0.30939206 0.1359085 -0.19751458 0.539844 -0.29723004 0.048405282
-0.13290793 -0.22738405 -0.18439844 0.040988375 0.02391905 0.18007298 0.18056497 -0.1158744
-0.23024888 -0.074482635 0.33317634 -0.024461186 -0.2976432 0.26477814 0.085602716 0.021795928
0.13604063 0.24668328 -0.16098003 0.32499522 0.33997622 0.084602356 0.22304264 0.26048124
0.4176399 -0.08225044 -0.21029098 -0.08590158 -0.24053851 0.22754791 0.3407326 0.4207093
00000000: 3513 5a3e 1eb6 87bd a368 9ebe 992b 0b3e
00000010: 4341 4abe 3733 0a3f 892e 98be 9e44 463d
00000020: 0419 08be 5dd7 68be f2d2 3cbe 6de3 273d
00000030: e2f1 c33c 0d65 383e 06e6 383e 8f4f edbd
00000040: 5dc6 6bbe 5a8a 98bd 1796 aa3e d362 c8bc
00000050: b164 98be 0091 873e 7a50 af3d 608d b23c
00000060: 3c4e 0b3e 8b9a 7c3e f3d7 24be c665 a63e
00000070: 5d11 ae3e 0044 ad3d 4a65 643e cc5d 853e
00000080: e6d4 d53e eb72 a8bd 8556 57be 2bed afbd
00000090: ba4f 76be 5202 693e 8174 ae3e 3667 d73e

layer5.bias f4 [5]
0.7092315 -0.006609877 -0.13364239 0.36558196 0.55502814
00000000: 3290 353f ab97 d8bb 8dd9 08be 8f2d bb3e
00000010: 5316 0e3f
