DeepOPF+/3.adversarial_sample_algorithm/2.adversary_training/S-PTH/PreDCOPF_case30_0.93_dnn.pth (torch_old, 6824 bytes, 8 tensors)

layer1.weight f4 [32, 20]
0	0x3dffed7e	0.1249647
1	0xbdca13cc	-0.09867057
2	0xbd3ac438	-0.045597285
3	0x3ddba6b5	0.10725156
4	0xbe4a2f19	-0.19744529
5	0x3e0b39d5	0.1359628
6	0xbd293d4f	-0.041318234
7	0x3deb751d	0.11496947
8	0x3d0f552c	0.034993336
9	0xbccae8b6	-0.024769168
10	0x3d82bb15	0.06383339
11	0x3c4b5014	0.012409229
12	0x3da9aee4	0.08285311
13	0xbdb0cacd	-0.08632431
14	0xbc797748	-0.015226193
15	0xbcafd40d	-0.021463418
16	0x3cfa6101	0.030563833
17	0xba43af10	-0.0007464746
18	0x3e48fce8	0.19627726
19	0x3d93fb00	0.07225609
20	0xbd9e95b9	-0.07743401
21	0xbe072d55	-0.13200887
22	0xbd116789	-0.03549913
23	0xbdba9ee5	-0.09112338
24	0xbd83d302	-0.06436731
25	0x3c4ce380	0.012505412
26	0x3e0a9310	0.13532662
27	0x3dfa89aa	0.122332886
28	0xbe5c1878	-0.21493709
29	0x3e0ea9c8	0.13931954
30	0x3d8427e3	0.0645292
31	0x3e567c5e	0.2094588
32	0x3e180dbd	0.1484899
33	0xbe4cda9c	-0.20005268
34	0xbe546cb7	-0.20744596
35	0xbddc5c79	-0.10759825
36	0x3e49f473	0.19722156
37	0xbd0cb2f3	-0.034350347
38	0x3dbf31a4	0.0933564
39	0xbdd57fc8	-0.10424763
40	0x3e80a37e	0.25124735
41	0xbdc00d8c	-0.09377584
42	0x3e24c202	0.16089633
43	0x3b71194f	0.0036788767
44	0xbd849d24	-0.06475285
45	0x3deb53ee	0.11490618
46	0xbdda8d8c	-0.10671529
47	0x3d8643c6	0.065558955
48	0xbd5b4028	-0.05352798
49	0xbc85c93e	-0.016331311
50	0xbe5e1c9d	-0.21690603
51	0xbdd4e65d	-0.10395501
52	0x3df150c2	0.117829815
53	0xbd4a4291	-0.04937989
54	0x3e58983b	0.21151821
55	0x3e2f0dc8	0.17095101
56	0xbce5de8e	-0.028060224
57	0xbe230d16	-0.1592296
58	0x3e0ba505	0.13637169
59	0x3dc170f8	0.09445375
60	0xbde4555c	-0.111490935
61	0x3e17d5af	0.14827608
62	0x3e08d6cb	0.13363187
63	0x3e585f13	0.21130018
64	0xbd8e0167	-0.06933861
65	0xbd0b2cba	-0.0339782
66	0x3c265614	0.010152359
67	0x3d1c9b88	0.038234264
68	0xbe26dd0b	-0.16295259
69	0xbe1b71de	-0.15180156
70	0x3e02416e	0.12720272
71	0xbd52e3e9	-0.051486883
72	0x3de2e686	0.11079125
73	0x3c9ba3ea	0.018999059
74	0x3d943f9d	0.07238696
75	0x3d3cfa94	0.046137407
76	0x3d985c01	0.07439423
77	0x3ddd4c0b	0.1080552
78	0xbe55effe	-0.20892331
79	0x3e0a37ee	0.13497898
80	0xbe28deec	-0.16491288
81	0xbe2ccef6	-0.16875824
82	0x3c6a8ddd	0.014316049
83	0xbd2c76ae	-0.04210537
84	0x3dd5cdb3	0.10439625
85	0xbe067ebd	-0.13134284
86	0xbe503bea	-0.20335355
87	0x3e247740	0.16061115
88	0xbd1ae6a0	-0.037817597
89	0x3df945bd	0.12171505
90	0x3d8cd9df	0.06877493
91	0xbe2a4d70	-0.16631103
92	0x3d2f8869	0.0428547
93	0x3d4039df	0.04693019
94	0xbe1dc01f	-0.1540532
95	0xbdd69c53	-0.10479035
96	0x3d956c69	0.07296068
97	0x3d1bea05	0.038064975
98	0xbdbb9b12	-0.09160437
99	0xbd85f377	-0.06540578
100	0x3e43610e	0.19079992
101	0xbd1455de	-0.0362147
102	0x3e0549d1	0.1301644
103	0x3dd42c2d	0.10359988
104	0xbe168b30	-0.14701533
105	0xbe393016	-0.1808475
106	0x3e56d49e	0.20979545
107	0x3c838877	0.016056282
108	0x3e17b235	0.14814074
109	0x3d333257	0.04374918
110	0x3da21bca	0.079154566
111	0x3e2583a0	0.16163492
112	0x3e6097c9	0.21932901
113	0xbe13c2b8	-0.14429748
114	0x3d62d1f5	0.055376012
115	0x3e304e0e	0.17217276
116	0x3e384240	0.17994022
117	0x3e1a0fa5	0.1504503
118	0xbe2679ff	-0.16257475
119	0xbe3abd34	-0.18236238
120	0xbe143040	-0.14471531
121	0x3cd35a7b	0.02579998
122	0x3e61801d	0.22021528
123	0xbe191ee3	-0.14953189
124	0x3dc41cba	0.09575792
125	0xbe018fcc	-0.1265251
126	0xbe5ce962	-0.21573403
127	0xbd527ab6	-0.051386558
128	0x3e000f07	0.12505732
129	0x3e508b08	0.20365536
130	0xbe1248c7	-0.14285575
131	0x3d48b2af	0.04899853
132	0x3e3e1516	0.18562731
133	0x3e132ab6	0.14371762
134	0x3e0595ea	0.13045469
135	0x3e209739	0.15682687
136	0x3e09acf9	0.1344489
137	0x3d545a80	0.05184412
138	0xbe1bc244	-0.15210825
139	0xbe3f71a8	-0.186957
140	0xbd8a8170	-0.067629695
141	0xbcd130c1	-0.025535943
142	0xbe0b21f6	-0.13587174
143	0x3dc57d35	0.09643022
144	0x3e1211a6	0.14264545
145	0xbd29d8a2	-0.041466363
146	0x3dd4a7e3	0.10383584
147	0x3da527b0	0.080642104
148	0x3e172b04	0.14762503
149	0x3e22ed4c	0.15910834
150	0xbd87856d	-0.06617246
151	0x3e5e7876	0.2172564
152	0xbc80bf43	-0.0157162
153	0xb973d4e7	-0.00023253598
154	0xbe45ab18	-0.19303548
155	0xbe113ece	-0.14184114
156	0xbe005fd3	-0.12536554
157	0xbdb5a8ed	-0.08870111
158	0x3e246e20	0.16057634
159	0xbd85c9b1	-0.0653261
160	0xbe338614	-0.17531615
161	0x3dac4c34	0.08412972
162	0x3d91f8c2	0.07127525
163	0x3e0d5e8c	0.13805598
164	0xbe0735a7	-0.1320406
165	0x3d3485bc	0.04407285
166	0xbdb2a871	-0.08723534
167	0xbd5f1761	-0.054465655
168	0xbe3876b9	-0.18014039
169	0xbdd6d188	-0.10489184
170	0xbd9780bb	-0.073976
171	0x3dc38229	0.095463105
172	0x3d107fb0	0.035278022
173	0x3d56bebb	0.05242799
174	0x3e5a48d4	0.21316844
175	0x3e5cd22d	0.2156455
176	0x3e15fb47	0.14646636
177	0x3b6371f5	0.0034705375
178	0xbe1dc71b	-0.15407984
179	0x3e377bbf	0.17918299
180	0xbd94816a	-0.07251246
181	0xbc923c11	-0.017850908
182	0xbe43f5bf	-0.19136713
183	0xbd4c292a	-0.049843945
184	0xbe31f3fc	-0.17378229
185	0x3e4f7e02	0.20262912
186	0xbe4c40d9	-0.19946612
187	0xbe35533c	-0.17707533
188	0xbc62179d	-0.013799575
189	0xbe00af5c	-0.12566894
190	0x3d994324	0.07483509
191	0xbdb0a987	-0.08626085
192	0xbddbaa9e	-0.10725902
193	0x3c014b0f	0.0078914305
194	0x3e1faba5	0.15592821
195	0xbe1fd64b	-0.1560909
196	0x3dd40603	0.10352709
197	0x3e1219ca	0.1426765
198	0x3e5ffadf	0.21873043
199	0xbe225cd3	-0.15855722
200	0x3d93f466	0.0722435
201	0xbe278c61	-0.16362144
202	0x3e453ab5	0.19260676
203	0xbda555c7	-0.08073001
204	0x3e33db0d	0.1756403
205	0x3c3a6c43	0.011378351
206	0xbbee2c74	-0.007268483
207	0xbb9f81f7	-0.004867788
208	0x3d38109a	0.044937707
209	0x3de5d5ff	0.11222457
210	0x3d2af5b7	0.04173824
211	0x3d8f0413	0.06983199
212	0xbe4b59a4	-0.19858414
213	0x3e2e606e	0.17028973
214	0x3e54046b	0.2070481
215	0x3e3fc961	0.18729164
216	0x3e2e20f1	0.17004754
217	0xbe224b34	-0.15849
218	0xbdadc603	-0.08485033
219	0x3e4d2661	0.20034172
220	0xbe4191b7	-0.18903242
221	0x3e4b6394	0.19862205
222	0xbe352f6b	-0.1769387
223	0xbe2e9a0a	-0.17050949
224	0x3d770dc2	0.060315855
225	0xbe298830	-0.16555858
226	0xbd851440	-0.06498003
227	0x3e1da38d	0.15394421
228	0x3e2ccfd9	0.16876163
229	0x3e4fc7d3	0.2029107
230	0xbd5c660d	-0.05380826
231	0xbe2f4ffc	-0.17120355
232	0x3e550faf	0.20806764
233	0xbd5baa8d	-0.053629447
234	0xbde03d02	-0.10949136
235	0x3d4eeb9d	0.050517667
236	0xbe296f27	-0.16546308
237	0x3e0d40d7	0.13794266
238	0x3e0c2d73	0.13689213
239	0xbe34db99	-0.17661895
240	0xbe4d08a1	-0.20022823
241	0xbca968a7	-0.020679785
242	0x3dbc6b1d	0.09200118
243	0xbc7f0b96	-0.015566727
244	0xbe1137b5	-0.14181407
245	0x3a0ca2e2	0.00053648476
246	0xbe5f09e2	-0.21781114
247	0xbe269da1	-0.16271068
248	0xbe1d7332	-0.15375975
249	0x3e36af2f	0.17840265
250	0x3e459c66	0.19297943
251	0xbd9cbd14	-0.07653251
252	0x3accefe1	0.0015635454
253	0x3dc1978e	0.09452735
254	0x3c829efc	0.01594495
255	0xbde8a5df	-0.113597624

layer1.bias f4 [32]
0	0xbca50e00	-0.020148277
1	0xbda0b6ab	-0.07847341
2	0x3e337a4d	0.17527123
3	0x3e3e7dda	0.18602696
4	0x3e0edf28	0.13952315
5	0x3dc95582	0.098307624
6	0xbe3ab887	-0.18234454
7	0x3e620d2a	0.22075334
8	0xbe48946f	-0.19587873
9	0xbd865692	-0.06559481
10	0xbe0f628f	-0.14002441
11	0x3d95c96b	0.07313808
12	0xbe344f86	-0.17608461
13	0xbdaf0ae6	-0.085470006
14	0xbe1176bd	-0.14205451
15	0xbe115d1c	-0.14195675
16	0xbdd9f5a7	-0.106425576
17	0x3e636e33	0.22210006
18	0xbc53a18f	-0.012916937
19	0x3d9cea4a	0.076618746
20	0xbe6a6f4e	-0.22894022
21	0x3e746fe1	0.23870803
22	0xbd51fcc4	-0.051266447
23	0xbe49d7cd	-0.19711228
24	0x3e3c0479	0.18361081
25	0xbd84014c	-0.0644556
26	0x3e57fc9c	0.21092457
27	0xbe1d4902	-0.15359882
28	0xbe5b08f4	-0.21390134
29	0xbe2c3d5f	-0.16820286
30	0x3ddd1668	0.10795289
31	0x3adbe9a7	0.0016778008

layer2.weight f4 [16, 32]
0	0xbe27a780	-0.1637249
1	0x3d084fc2	0.033279188
2	0xbc364aa6	-0.011126196
3	0x3d7eb7aa	0.062186874
4	0xbdb91946	-0.09038024
5	0xbe02c38b	-0.12769906
6	0x3df0d5ab	0.11759504
7	0xbdad4573	-0.08460512
8	0x3dfc6801	0.12324525
9	0x3e124278	0.14283168
10	0xbdfde540	-0.123972416
11	0xbda7f86a	-0.08201678
12	0x3ca5edfc	0.020255081
13	0xbe2aaabb	-0.16666691
14	0x3d5a39f2	0.053277917
15	0xbd96b974	-0.07359591
16	0xbda03fd3	-0.078246735
17	0xbe0d3657	-0.1379026
18	0x3da95c76	0.08269589
19	0xbde812ea	-0.113317326
20	0xbe10cfeb	-0.14141814
21	0xbd41c5d5	-0.047307808
22	0xbdcbe6aa	-0.09956105
23	0xbe305804	-0.17221075
24	0x3d8e8c2d	0.0696033
25	0xbd8813e5	-0.066444196
26	0x3e0018a9	0.12509407
27	0x3dfdc5bf	0.12391233
28	0xbde6ca5f	-0.11269068
29	0xbdd314c8	-0.10306698
30	0xbd814236	-0.06311457
31	0x3dd0515d	0.10171769
32	0xbbcd0542	-0.0062567303
33	0xbd87a708	-0.066236556
34	0x3dfb1013	0.12258925
35	0x3e0c52d3	0.1370347
36	0x3e1d4f08	0.1536218
37	0xbe13dab4	-0.14438897
38	0xbd47236c	-0.048617765
39	0x3d0c125e	0.034197204
40	0x3dfca329	0.12335808
41	0xbdf9ccc5	-0.1219726
42	0xbd83bfc2	-0.06433059
43	0x3cd57e8a	0.026061315
44	0xbd872484	-0.06598762
45	0x3def633b	0.116888486
46	0x3c3bce6c	0.011462789
47	0xbdbb38d1	-0.09141696
48	0x3e145da1	0.14488842
49	0x3db90cc3	0.09035637
50	0x3d4962ae	0.049166374
51	0xbe35a84e	-0.17739984
52	0x3d8a2ffb	0.06747433
53	0x3e142b27	0.14469586
54	0x3d121c05	0.035671253
55	0xbd97167b	-0.07377335
56	0x3d9a97ef	0.0754851
57	0xbd662334	-0.056185916
58	0x3e2be600	0.16786957
59	0x3e2334ec	0.15938157
60	0xbc627cac	-0.013823669
61	0xbd9dbe20	-0.07702279
62	0x3df385ae	0.11890732
63	0x3df9f261	0.12204433
64	0x3dbc7f31	0.09203947
65	0xbe0c7c7d	-0.13719364
66	0x3d8ecfd3	0.06973233
67	0xbda2b34f	-0.07944357
68	0xbe152a5d	-0.14566942
69	0xbde0ea76	-0.1098222
70	0x3daa43a1	0.083136804
71	0x3db57989	0.088610716
72	0xbe250c71	-0.16118027
73	0x3db311aa	0.087436035
74	0x3e230e5b	0.15923445
75	0x3e145cb5	0.1448849
76	0x3db6bb4e	0.08922444
77	0xbb984db1	-0.0046479334
78	0x3ded5a4a	0.11589487
79	0x3e103068	0.14080966
80	0x3dc3c74e	0.09559499
81	0xbdfe4929	-0.12416298
82	0xbd769461	-0.0602001
83	0x3e0e5d61	0.13902809
84	0x3e00e044	0.1258555
85	0x3e080a87	0.13285266
86	0xbd8f0aa8	-0.069844544
87	0xbcea4104	-0.028595455
88	0xbdba8bb7	-0.0910868
89	0xbde1d3a8	-0.11026698
90	0x3e035472	0.12825182
91	0xbe16831d	-0.14698453
92	0xbd35dad0	-0.04439813
93	0x3d687a0e	0.056757025
94	0xbdbee6c6	-0.0932136
95	0x3d873374	0.06601611
96	0xbce2c080	-0.027679682
97	0x3d933406	0.07187657
98	0xbe09b434	-0.13447648
99	0x3cc62ae8	0.024190381
100	0xbe234b33	-0.15946655
101	0x3de692c7	0.11258464
102	0x3e308de9	0.17241634
103	0xbd6f6eab	-0.05845515
104	0x3ccf9983	0.025341755
105	0xbdba0813	-0.09083571
106	0xbde37b7b	-0.111075364
107	0xbdb3de5b	-0.08782645
108	0xbdad49a8	-0.084613144
109	0x3d1e6bc3	0.03867699
110	0xbca6c5cf	-0.020357994
111	0x3c5b1d64	0.0133737065
112	0xbe0a3896	-0.13498148
113	0xbde1f2fd	-0.110326745
114	0xbe1bde0e	-0.15221426
115	0xbe014fc4	-0.12628084
116	0x3e181f05	0.14855583
117	0x3d8acf07	0.067777686
118	0xbe2c398f	-0.16818832
119	0xbcf071ec	-0.029351197
120	0x3c929709	0.017894285
121	0x3dc726ea	0.09724219
122	0x3e2aa915	0.16666062
123	0x3d3132ff	0.043261524
124	0x3e00049c	0.12501758
125	0xbd78d92e	-0.060753994
126	0xbb7d2871	-0.0038628841
127	0xbdd73d3a	-0.10509725
128	0x3d04096f	0.03223556
129	0x3e0de35e	0.13856265
130	0x3e074dab	0.13213222
131	0x3e2ba535	0.1676224
132	0xbd8b1860	-0.067917585
133	0x3cac5643	0.021037227
134	0x3d6dcb6a	0.05805532
135	0x3e38eae4	0.18058354
136	0xbe3b1c52	-0.18272522
137	0xbdfd3368	-0.123633206
138	0x3da8ef49	0.08248765
139	0xbdad0876	-0.084488794
140	0x3d12a957	0.035806026
141	0x3d2f9e3c	0.042875513
142	0xbd69e2df	-0.057101127
143	0x3dbe0c9e	0.0927975
144	0x3e04d517	0.12971912
145	0x3e35c5af	0.17751192
146	0x3da4c01f	0.08044457
147	0xbbc79a14	-0.0060913656
148	0x3df4701a	0.11935444
149	0x3e444ac7	0.1916915
150	0xbda9be7e	-0.082882866
151	0x3dc9d67e	0.09855364
152	0x3e09bb93	0.1345046
153	0xbdf507fd	-0.11964414
154	0xbd9c1af7	-0.07622331
155	0xbd7f23e7	-0.0622901
156	0xbe0754f9	-0.13216008
157	0xba92be03	-0.0011195544
158	0x3dc39286	0.095494315
159	0x3e464004	0.19360358
160	0x3c500ff5	0.012699117
161	0xbe2fc55b	-0.17165129
162	0x3dbe242c	0.09284243
163	0xbd5cb82f	-0.05388659
164	0x3e1fff5d	0.15624757
165	0xbe2ef051	-0.17083861
166	0xbd29eef4	-0.04148765
167	0x3e09d55d	0.13460298
168	0x3d9c652a	0.07636483
169	0xbdb6696f	-0.089068286
170	0xbe1cdca9	-0.1531855
171	0xbb871975	-0.0041229078
172	0x3d8aa1a2	0.0676911
173	0xbe16753a	-0.14693156
174	0xbe17ae1e	-0.14812514
175	0xbb5a9bb2	-0.0033356962
176	0xbd15f856	-0.036613785
177	0x3de5f502	0.11228372
178	0xbe2fae69	-0.17156376
179	0xbce81751	-0.02833143
180	0xbe0c4976	-0.13699898
181	0xbcdc64b9	-0.026903497
182	0xbdba1929	-0.0908683
183	0x3d621bf9	0.055202458
184	0xbe17ea90	-0.14835572
185	0xbe0ed73b	-0.13949291
186	0xbdce2e0c	-0.100673765
187	0xbe1ee20e	-0.1551592
188	0x3de2a04a	0.11065729
189	0xbcd1b4eb	-0.025598964
190	0xbdca1ac3	-0.09868386
191	0x3dfa8ae7	0.12233525
192	0xbd3c9789	-0.046042953
193	0x3d92f099	0.071747966
194	0xbd2bc146	-0.041932367
195	0xbe14304b	-0.14471547
196	0x3d1c8af2	0.038218446
197	0x3e147e5f	0.14501332
198	0xbe20db5e	-0.15708682
199	0x3cdce2c2	0.026963595
200	0x3ceb8b73	0.028753018
201	0xba5b668a	-0.00083694665
202	0x3ce0244e	0.027361061
203	0xbd4ee92d	-0.050515343
204	0xbe1b3202	-0.15155795
205	0x3d6a9f78	0.057280988
206	0xbdfe393f	-0.124132626
207	0xbe1b0b22	-0.15140966
208	0xbd72e287	-0.059298065
209	0xbde68b97	-0.112570934
210	0x3d501667	0.050802615
211	0x3e04ec49	0.1298076
212	0x3df78a81	0.120869644
213	0xbda7370c	-0.08164796
214	0x3dd61e9d	0.10455058
215	0x3e0f0a0c	0.13968676
216	0x3d8c4377	0.068488054
217	0x3d0d1622	0.034444936
218	0x3d948bf3	0.07253256
219	0x3df87cc4	0.12133172
220	0x3dadfb4a	0.08495195
221	0x3dd6609c	0.104676455
222	0xbd332257	-0.04373392
223	0xbd804791	-0.0626365
224	0xbda814c1	-0.082070835
225	0x3e13b992	0.14426258
226	0xbd18a683	-0.037268173
227	0x3caa25eb	0.020770034
228	0xbe29d5d6	-0.16585478
229	0x3c713232	0.01472144
230	0xbd1e5473	-0.038654756
231	0xbdfe697e	-0.12422465
232	0x3e129612	0.1431506
233	0xbe0d7d44	-0.13817316
234	0xbcc14499	-0.02359228
235	0xbc4a30cf	-0.012340738
236	0xbe20922c	-0.1568076
237	0x3dd72423	0.105049394
238	0xbd56c901	-0.052437786
239	0x3d9be93b	0.076128446
240	0x3dc043f2	0.093879595
241	0x3e2bcc72	0.16777208
242	0x3d23a564	0.03995265
243	0x3e109a82	0.1412144
244	0x3e271037	0.16314779
245	0x3d20fb39	0.039302085
246	0xbcda9dc0	-0.02668655
247	0xbd21bb19	-0.03948507
248	0x3d1187d3	0.035529923
249	0x3d5751b9	0.05256817
250	0xbe2d4f1d	-0.1692471
251	0x3e0a5082	0.13507274
252	0x3cbff0e2	0.023430292
253	0xbe284c5b	-0.16435377
254	0x3d8717fa	0.0659637
255	0x3df27a81	0.11839772

layer2.bias f4 [16]
0	0x3d006915	0.031350214
1	0x3e2f9859	0.1714796
2	0x3dcd4571	0.100230105
3	0x3dc3c06e	0.095581874
4	0x3e3356a4	0.1751352
5	0x3ca1b1d7	0.019738121
6	0x3e31f8e3	0.17380099
7	0x3de48e69	0.11159975
8	0xbd8916cf	-0.066938035
9	0xbd8af00f	-0.06784069
10	0x3d574e2a	0.052564777
11	0x3e61107f	0.21978949
12	0x3dd43b5f	0.10362887
13	0xbda00777	-0.07813924
14	0xbd231d1c	-0.039822683
15	0x3de10e10	0.1098901

layer3.weight f4 [8, 16]
0	0x3dbf244d	0.09333096
1	0x3e9876ab	0.29778036
2	0x3e237911	0.15964152
3	0x3daf5196	0.08560483
4	0x3e04d205	0.12970741
5	0xbe6d9bc2	-0.23203948
6	0xbd22b6fd	-0.039725292
7	0x3d0338f5	0.03203674
8	0xbe05d57e	-0.13069722
9	0xbe66226b	-0.22474067
10	0x3e34027b	0.17579071
11	0x3dfb2023	0.12261989
12	0xbe1f0d9f	-0.1553254
13	0x3c3e9164	0.0116313435
14	0x3e3214b1	0.17390706
15	0x3e4bf1ce	0.1991646
16	0x3e69c80a	0.22830215
17	0xbdca8274	-0.09888163
18	0x3de3f0c9	0.111299105
19	0xbe4fa9a4	-0.20279557
20	0xbcfc8aa8	-0.030827835
21	0xbe22d0a6	-0.15899906
22	0xbd430c00	-0.047618866
23	0x3e11b0ff	0.14227675
24	0x3dff11c1	0.12454558
25	0xbe06a8ee	-0.13150379
26	0xbd7dee8c	-0.061995074
27	0xbd4cda78	-0.050013036
28	0xbdc2cefe	-0.09512137
29	0xbe0c3c6a	-0.13694921
30	0x3e3bde1d	0.18346448
31	0x3e30ee50	0.17278409
32	0x3e55b6a6	0.20870456
33	0xbe0cc789	-0.13747992
34	0x3e3b05d6	0.18263945
35	0xbd9b4354	-0.07581201
36	0xbd71bc56	-0.0590175
37	0xbd89debe	-0.06731938
38	0xbc49a77f	-0.012308001
39	0xbde0415d	-0.10949967
40	0x3d09eb90	0.033671916
41	0xbe250188	-0.16113865
42	0x3dd28c02	0.102806106
43	0xbe56d339	-0.20979013
44	0xbdb9e1cd	-0.09076271
45	0xbe32cf10	-0.174618
46	0x3e2c4e2e	0.16826698
47	0x3e2fa26e	0.17151806
48	0xbe4b322d	-0.1984336
49	0xbde3ac8e	-0.111168966
50	0x3e625084	0.22101027
51	0x3d8fd450	0.07022917
52	0x3e6be55e	0.23036715
53	0xbe43da92	-0.19126347
54	0x3df59536	0.1199135
55	0x3e343484	0.17598158
56	0xbd5efe72	-0.054441877
57	0x39a81574	0.0003205944
58	0x3e3ae31c	0.18250698
59	0x3de3cf3f	0.111235134
60	0x3da7b9b1	0.08189715
61	0xbac8cfab	-0.0015320679
62	0xbdb464bd	-0.08808277
63	0xbe11a43c	-0.14222807
64	0x3e7f77ea	0.24948087
65	0xbca1fb5f	-0.019773183
66	0x3e632950	0.22183728
67	0x3e517576	0.20454964
68	0xbe05dfa0	-0.13073587
69	0x3c8b341f	0.016992627
70	0xbd82fae2	-0.06395508
71	0xbb94c3e7	-0.004539955
72	0x3e28af46	0.16473112
73	0x3e0cf74f	0.13766216
74	0xbe1167c2	-0.14199737
75	0xbdfd5aaf	-0.12370812
76	0xbe35dd0e	-0.17760107
77	0xbe595a94	-0.21225959
78	0x3e2430cb	0.16034238
79	0xbe1e3008	-0.1544801
80	0xbb1f5ba0	-0.0024316087
81	0x3d6721ce	0.056428723
82	0x3d78a6d1	0.060705964
83	0xbd09504c	-0.033523843
84	0x3e96b74f	0.29436728
85	0x3d17eb4b	0.037089627
86	0x3e3d4908	0.1848489
87	0x3dadd1be	0.08487271
88	0x3ca3ddfb	0.02000331
89	0x3d61bb02	0.055109985
90	0x3e3670b0	0.17816424
91	0x3e28809b	0.16455309
92	0x3e5875c4	0.21138674
93	0xbd1f26e4	-0.03885545
94	0x3d72ccfa	0.059277512
95	0x3e875368	0.2643082
96	0xbe71b000	-0.23602295
97	0x3ca9dec3	0.020736104
98	0x3e657d8c	0.22411174
99	0xbe00a89c	-0.1256432
100	0xbd581501	-0.052754406
101	0xbc76dc14	-0.015067119
102	0x3da155a1	0.078776605
103	0x3dbbffd5	0.091796555
104	0x3d65441f	0.05597317
105	0x3dca4fe0	0.09878516
106	0xbddc36ba	-0.10752626
107	0x3dcb2608	0.09919363
108	0xbda27f64	-0.07934454
109	0x3e1e852a	0.15480486
110	0xbd9a5350	-0.07535422
111	0xbe59e775	-0.212797
112	0x3c5d8a8b	0.013521801
113	0x3e32c57a	0.17458144
114	0x3c62b2e9	0.013836601
115	0xbbb9d0d5	-0.0056706467
116	0x3dba08d9	0.09083719
117	0x3e0af287	0.1356908
118	0x3d36ba22	0.044611104
119	0xbe5d2762	-0.21597055
120	0xbe148e80	-0.14507484
121	0x3c932530	0.017962068
122	0xbc293f64	-0.010330055
123	0x3e96b59d	0.29435435
124	0xbc8c714a	-0.017143864
125	0x3e389328	0.18024886
126	0xbe34b10d	-0.17645665
127	0xbe31d765	-0.17367323

layer3.bias f4 [8]
0	0x3e4b56de	0.19857356
1	0xbe223caf	-0.15843461
2	0xbd97623c	-0.073917836
3	0x3da17128	0.07882911
4	0xbe5e1e7d	-0.21691318
5	0x3eaf804f	0.3427758
6	0xbe26d4f4	-0.16292173
7	0x3eae7dca	0.34080344

layer5.weight f4 [5, 8]
0	0x3e63ada8	0.22234213
1	0xbd87b61e	-0.06626533
2	0xbe9e68a3	-0.30939206
3	0x3e0cad9f	0.13738106
4	0xbe4a4143	-0.19751458
5	0x3f0c763b	0.54867905
6	0xbe982e89	-0.29723004
7	0x3d513a1f	0.05108082
8	0xbe1694ed	-0.14705248
9	0xbe68d75d	-0.22738405
10	0xbe3cd2f2	-0.18439844
11	0x3b7ea57a	0.0038855956
12	0x3cc3f0c1	0.023918511
13	0x3e05af89	0.13055243
14	0x3e38ddec	0.18053406
15	0xbdfd6f31	-0.12374724
16	0xbe719d6d	-0.2359521
17	0xbd988a59	-0.07448263
18	0x3eaa9617	0.33317634
19	0xbd34aabf	-0.04410815
20	0xbe9864b1	-0.2976432
21	0x3e78a33c	0.24281019
22	0x3daf3cc5	0.08556513
23	0x3c9dae85	0.019248256
24	0x3e05ca8f	0.13065551
25	0x3e7c9a8b	0.24668328
26	0xbe24d7f3	-0.16098003
27	0x3e9be2e6	0.30446547
28	0x3eae115d	0.33997622
29	0x3d6130d8	0.05497822
30	0x3e64616a	0.22302786
31	0x3e84357b	0.25822052
32	0x3ed14238	0.40870833
33	0xbda872ea	-0.08225043
34	0xbe575685	-0.21029098
35	0xbdaef0fd	-0.085420586
36	0xbe764fba	-0.24053851
37	0x3e61bf0d	0.22045536
38	0x3eae757e	0.34074014
39	0x3ed6e07c	0.41968143

layer5.bias f4 [5]
0	0x3f36fdc9	0.71480995
1	0x3d2c8068	0.042114645
2	0xbdcd83c6	-0.100348994
3	0x3ecc6e91	0.39928105
4	0x3f0ec74e	0.55772865
